nohup: ignoring input
==22090== NVPROF is profiling process 22090, command: ./darknet classifier predict cfg/imagenet1k.data cfg/darknet19.cfg darknet19.weights data/eagle.jpg
layer     filters    size              input                output
    0 conv     32  3 x 3 / 1   256 x 256 x   3   ->   256 x 256 x  32  0.113 BFLOPs
    1 max          2 x 2 / 2   256 x 256 x  32   ->   128 x 128 x  32
    2 conv     64  3 x 3 / 1   128 x 128 x  32   ->   128 x 128 x  64  0.604 BFLOPs
    3 max          2 x 2 / 2   128 x 128 x  64   ->    64 x  64 x  64
    4 conv    128  3 x 3 / 1    64 x  64 x  64   ->    64 x  64 x 128  0.604 BFLOPs
    5 conv     64  1 x 1 / 1    64 x  64 x 128   ->    64 x  64 x  64  0.067 BFLOPs
    6 conv    128  3 x 3 / 1    64 x  64 x  64   ->    64 x  64 x 128  0.604 BFLOPs
    7 max          2 x 2 / 2    64 x  64 x 128   ->    32 x  32 x 128
    8 conv    256  3 x 3 / 1    32 x  32 x 128   ->    32 x  32 x 256  0.604 BFLOPs
    9 conv    128  1 x 1 / 1    32 x  32 x 256   ->    32 x  32 x 128  0.067 BFLOPs
   10 conv    256  3 x 3 / 1    32 x  32 x 128   ->    32 x  32 x 256  0.604 BFLOPs
   11 max          2 x 2 / 2    32 x  32 x 256   ->    16 x  16 x 256
   12 conv    512  3 x 3 / 1    16 x  16 x 256   ->    16 x  16 x 512  0.604 BFLOPs
   13 conv    256  1 x 1 / 1    16 x  16 x 512   ->    16 x  16 x 256  0.067 BFLOPs
   14 conv    512  3 x 3 / 1    16 x  16 x 256   ->    16 x  16 x 512  0.604 BFLOPs
   15 conv    256  1 x 1 / 1    16 x  16 x 512   ->    16 x  16 x 256  0.067 BFLOPs
   16 conv    512  3 x 3 / 1    16 x  16 x 256   ->    16 x  16 x 512  0.604 BFLOPs
   17 max          2 x 2 / 2    16 x  16 x 512   ->     8 x   8 x 512
   18 conv   1024  3 x 3 / 1     8 x   8 x 512   ->     8 x   8 x1024  0.604 BFLOPs
   19 conv    512  1 x 1 / 1     8 x   8 x1024   ->     8 x   8 x 512  0.067 BFLOPs
   20 conv   1024  3 x 3 / 1     8 x   8 x 512   ->     8 x   8 x1024  0.604 BFLOPs
   21 conv    512  1 x 1 / 1     8 x   8 x1024   ->     8 x   8 x 512  0.067 BFLOPs
   22 conv   1024  3 x 3 / 1     8 x   8 x 512   ->     8 x   8 x1024  0.604 BFLOPs
   23 conv   1000  1 x 1 / 1     8 x   8 x1024   ->     8 x   8 x1000  0.131 BFLOPs
   24 avg                        8 x   8 x1000   ->  1000
   25 softmax                                        1000
==22090== Some kernel(s) will be replayed on device 0 in order to collect all events/metrics.
Loading weights from darknet19.weights...Done!
data/eagle.jpg: Predicted in 195.764481 seconds.
85.20%: bald eagle
11.35%: kite
 2.65%: vulture
…
